model/gnn_model.pth (torch, 65963 bytes, 4 tensors)

conv1.bias f4 [16]
0.30829847 0.10072629 0.08510825 0.15647298 0.12142157 0.07273134 0.28467506 0.29021665
0.37514412 0.2731376 -0.0027347924 0.10890261 0.12598568 0.23525916 0.17457686 -0.011273914
00000000: 4cd9 9d3e 9649 ce3d 3c4d ae3d 743a 203e
00000010: dfab f83d 2bf4 943d eec0 913e 4797 943e
00000020: e412 c03e b1d8 8b3e 343a 33bb 5508 df3d
00000030: 6402 013e c7e7 703e 47c4 323e 39b6 38bc

conv1.lin.weight f4 [16, 1000]
-0.058061622 -0.18997851 -0.15133941 -0.063648894 -0.12492582 -0.054075748 -0.047374174 -0.12843518
-0.009114008 -0.11606374 -0.16339906 -0.0110341385 -0.192658 0.18169178 0.083686344 0.016861038
-0.09552704 0.20107457 0.25014502 0.23537517 -0.09826902 -0.23671427 0.18766446 -0.12967922
0.13514556 -0.10215941 -0.19142728 -0.13668312 0.24651179 0.24745165 0.20681098 0.28558362
0.23067437 0.2762136 -0.20024627 0.23781428 0.2672298 -0.112985775 0.052828502 0.07767557
0.12859587 0.020014431 0.199515 0.109435625 -0.07431851 -0.049973857 -0.048353292 0.041616146
-0.07372192 0.056086846 -0.07969691 -0.14226966 0.23432209 -0.29844984 0.23810032 0.26541948
-0.19585167 0.03059678 -0.06277549 -0.14881127 0.26871318 -0.08964688 0.16762945 0.24460593
-0.16261426 -0.026093692 0.16509084 -0.115781225 0.0015371229 0.16159642 0.1953091 -0.15731704
-0.1690602 0.061295006 0.2650053 -0.10433637 0.2066863 0.016883986 0.25508475 0.24272463
0.0833519 -0.22020005 -0.012839646 0.0017517335 -0.15386961 0.1125929 -0.012072958 -0.03514271
-0.19085 -0.26862758 0.23159844 -0.19308345 0.25332695 0.2083047 0.2290753 0.28714296
0.2352078 0.1573844 0.15415666 -0.12130589 0.00024638372 0.14593089 0.026808126 0.120857626
-0.07813387 0.061951376 -0.36701262 -0.05328168 -0.0104730455 0.023202691 -0.07860914 -0.06533913
-0.03406377 0.11943853 -0.025590044 0.21400937 -0.38551766 -0.33931804 -0.2621689 0.19137546
0.2680618 0.18676342 -0.035965372 0.30622542 -0.03790568 0.16504657 0.18356864 0.29419947
0.2675655 0.2845642 0.16758737 0.20304666 0.24490139 0.19115421 0.26316062 0.28732327
0.1419553 0.2030083 -0.18184255 0.16746026 0.20649509 0.17517681 0.19304417 0.27358192
0.22579718 0.18457623 0.19132523 0.3040563 0.271823 0.2372665 0.25981092 0.239554
0.09206186 0.10702109 0.2843522 0.24752529 0.2003025 0.26567855 -0.05479452 0.14716384
0.13071577 0.23195133 0.06798372 0.1604806 0.1874531 -0.009635106 0.13322368 0.252869
-0.056079883 -0.03358861 0.23933804 0.024179814 -0.0270699 0.24845356 -0.09406715 -0.0020660826
0.24043229 0.2376128 -0.09066535 0.14191039 0.030630022 0.2255237 0.084688485 0.26469836
-0.15747926 -0.07676814 -0.26376218 -0.14697234 0.23223391 0.29885337 0.2854395 0.23738582
0.25533453 0.24009925 -0.119924486 -0.18452966 0.036525056 0.053070206 0.30463707 -0.103667125
-0.1657588 -0.0057761357 -0.15134695 -0.039315604 0.088863045 -0.07777476 -0.2592828 0.1935007
0.28311822 0.2784574 -0.031915076 -0.054688126 -0.06955128 -0.24023056 0.15892091 -0.22891237
0.23193197 0.16837314 0.21189705 0.22956316 -0.141211 -0.16512077 -0.112297915 -0.030029811
-0.03894283 -0.02496243 0.0024110046 0.22684371 0.23636416 0.24628785 -0.05672649 0.021921182
-0.14096743 0.18028384 -0.17742959 0.010085016 -0.33108202 -0.22506712 -0.23318352 -0.30091324
-0.034446765 -0.0587415 -0.01001542 0.12485984 -0.110781476 0.16172582 0.18284978 0.24923508
0.104956254 -0.15338235 -0.12554057 -0.14603592 -0.11643835 -0.14645873 -0.13943641 0.2847405
00000000: 06d2 6dbd ba89 42be b8f8 1abe 5a5a 82bd
00000010: 1cd9 ffbd 887e 5dbd 6c0b 42bd 8384 03be
00000020: ec52 15bc d3b2 edbd 1552 27be 88c8 34bc
00000030: 2448 45be 690d 3a3e bf63 ab3d 2920 8a3c
00000040: aea3 c3bd 7ee6 4d3e 0213 803e 3006 713e
00000050: 4541 c9bd 3a65 72be 1d2b 403e a1ca 04be
00000060: 9963 0a3e f438 d1bd 8305 44be a9f6 0bbe
00000070: 966d 7c3e f763 7d3e 42c6 533e 0438 923e
00000080: e735 6c3e de6b 8d3e 5c0d 4dbe 9685 733e
00000090: 58d2 883e 1665 e7bd b362 583d 5f14 9f3d
000000a0: a3ae 033e 4ef5 a33c a94d 4c3e c91f e03d
000000b0: 4e34 98bd 63b1 4cbd 1a0e 46bd b175 2a3d
000000c0: 85fb 96bd 52bb 653d 2238 a3bd 23af 11be
000000d0: 21f2 6f3e 6bce 98be 92d0 733e 10e5 873e
000000e0: 578d 48be 19a6 fa3c 7090 80bd fb61 18be
000000f0: c694 893e c998 b7bd 0ea7 2b3e fa79 7a3e
00000100: 5a84 26be 70c2 d5bc 930d 293e b51e edbd
00000110: 4979 c93a 8879 253e 1cff 473e b817 21be
00000120: 1e1e 2dbe 7910 7b3d c6ae 873e 4fae d5bd
00000130: 93a5 533e 4950 8a3c 789a 823e ce8c 783e
00000140: 67b4 aa3d 1f7c 61be 615d 52bc 6c9a e53a
00000150: ff8f 1dbe 1b97 e63d a8cd 45bc cdf1 0fbd
00000160: 2f6e 43be 8e89 89be 2428 6d3e abb7 45be
00000170: 12b4 813e d44d 553e b792 6a3e 6704 933e
00000180: 50da 703e 6029 213e 3edb 1d3e 396f f8bd
00000190: 102d 8139 e86e 153e b79c db3c 3484 f73d
000001a0: a704 a0bd bac0 7d3d 14e9 bbbe e43d 5abd
000001b0: 2397 2bbc 9213 be3c d4fd a0bd 86d0 85bd
000001c0: 7486 0bbd 309c f43d 36a2 d1bc 4625 5b3e
000001d0: 9262 c5be 18bb adbe 013b 86be eef7 433e
000001e0: 653f 893e e93e 3f3e 6d50 13bd 94c9 9c3e
000001f0: fc42 1bbd f801 293e 6bf9 3b3e 50a1 963e
00000200: 58fe 883e 66b2 913e 069c 2b3e 77eb 4f3e
00000210: 6ec7 7a3e eebd 433e fdbc 863e 091c 933e
00000220: bb5c 113e 68e1 4f3e ef34 3abe b47a 2b3e
00000230: 7373 533e 8d61 333e 5fad 453e ee12 8c3e
00000240: 6037 673e 8d01 3d3e c3ea 433e 44ad 9b3e
00000250: 622c 8b3e fdf5 723e f005 853e a54d 753e
00000260: ee8a bc3d e02d db3d 9d96 913e 4577 7d3e
00000270: 191c 4d3e 0507 883e 3870 60bd 1eb2 163e
00000280: 5bda 053e a684 6d3e 0c3b 8b3d 0755 243e
00000290: b5f3 3f3e 90dc 1dbc ca6b 083e 0c78 813e
000002a0: 05b4 65bd 3694 09bd 0815 753e bf14 c63c
000002b0: b2c1 ddbc 9c6a 7e3e 47a6 c0bd 1d67 07bb
000002c0: e233 763e c550 733e c1ae b9bd f550 113e
000002d0: d0eb fa3c afef 663e 2871 ad3d 8b86 873e
000002e0: 3e42 21be 9d38 9dbd d60b 87be eb7f 16be
000002f0: bace 6d3e 4f03 993e 2025 923e 4515 733e
00000300: 35bb 823e 94dc 753e f89a f5bd 58f5 3cbe
00000310: 4c9b 153d 2560 593d 64f9 9b3e 6e4f d4bd
00000320: adbc 29be bd45 bdbb b2fa 1abe 6609 21bd
00000330: d4fd b53d 6048 9fbd b7c0 84be 0c25 463e
00000340: dff4 903e f891 8e3e 62b9 02bd a800 60bd
00000350: e770 8ebd 00ff 75be 2abc 223e 0168 6abe
00000360: 937f 6d3e 026a 2c3e 8afb 583e 9b12 6b3e
00000370: 9e99 10be 6b15 29be 73fc e5bd 1401 f6bc
00000380: 8482 1fbd 037e ccbc f201 1e3b b849 683e
00000390: 7209 723e e232 7c3e 095a 68bd 0d94 b33c
000003a0: c459 10be 549c 383e 1ab0 35be 9f3b 253c
000003b0: 9583 a9be ff77 66be a9c7 6ebe 4d11 9abe
000003c0: 0d18 0dbd ed9a 70bd b717 24bc 84b6 ff3d
000003d0: 66e1 e2bd 749b 253e f93c 3b3e 7b37 7f3e
000003e0: 4ef3 d63d 4310 1dbe b58d 00be 718a 15be
000003f0: 3b77 eebd 47f9 15be 6bc8 0ebe 82c9 913e

conv2.bias f4 [2]
0.018738704 -0.018738704
00000000: e981 993c e981 99bc

conv2.lin.weight f4 [2, 16]
-0.045691542 -0.5420668 0.8619336 0.61143273 -0.4565326 0.04789192 0.61319774 0.26660296
0.6600026 0.80495876 -0.3104024 -0.16184732 -0.5777087 0.38937074 0.84912044 -0.16764654
-0.88105994 0.52012914 -0.6633178 -0.579442 0.39362276 0.76391184 -0.47872975 -0.8498417
-0.14735515 0.031141806 1.2351156 0.52722 0.7305533 -0.5147431 -0.34787494 -0.051855475
00000000: 0e27 3bbd e4c4 0abf aea7 5c3f db86 1c3f
00000010: a4be e9be 512a 443d 87fa 1c3f 2f80 883e
00000020: eef5 283f c711 4e3f 10ed 9ebe 4ebb 25be
00000030: b8e4 13bf 9a5b c73e f55f 593f 89ab 2bbe
00000040: 258d 61bf 2f27 053f 32cf 29bf 5056 14bf
00000050: ec88 c93e ba8f 433f 111c f5be 3a8f 59bf
00000060: 45e4 16be 1a1d ff3c 4518 9e3f e4f7 063f
00000070: 8b05 3b3f 34c6 03bf aa1c b2be 6866 54bd
